…
{'arch': 'simplenet', 'batch_size': 100, 'data_path': './data/cifar.python', 'dataset': 'cifar100', 'decay': 0.002, 'epochs': 540, 'evaluate': False, 'gammas': [0.1, 0.1, 0.1, 0.1, 0.1], 'learning_rate': 0.1, 'manualSeed': 8593, 'momentum': 0.9, 'ngpu': 1, 'print_freq': 200, 'resume': '', 'save_path': './snapshots/simpnet', 'schedule': [100, 190, 306, 390, 440, 540], 'start_epoch': 0, 'use_cuda': True, 'workers': 2}
Random Seed: 8593
python version : 3.6.4 |Anaconda, Inc.| (default, Jan 16 2018, 18:10:19)  [GCC 7.2.0]
torch  version : 0.3.1
cudnn  version : 7005
=> creating model 'simplenet'
=> network :
 simplenet(
  (features): Sequential(
    (0): Conv2d(3, 64, kernel_size=[3, 3], stride=(1, 1), padding=(1, 1))
    (1): BatchNorm2d(64, eps=1e-05, momentum=0.05, affine=True)
    (2): ReLU(inplace)
    (3): Conv2d(64, 128, kernel_size=[3, 3], stride=(1, 1), padding=(1, 1))
    (4): BatchNorm2d(128, eps=1e-05, momentum=0.05, affine=True)
    (5): ReLU(inplace)
    (6): Conv2d(128, 128, kernel_size=[3, 3], stride=(1, 1), padding=(1, 1))
    (7): BatchNorm2d(128, eps=1e-05, momentum=0.05, affine=True)
    (8): ReLU(inplace)
    (9): Conv2d(128, 128, kernel_size=[3, 3], stride=(1, 1), padding=(1, 1))
    (10): BatchNorm2d(128, eps=1e-05, momentum=0.05, affine=True)
    (11): ReLU(inplace)
    (12): MaxPool2d(kernel_size=(2, 2), stride=(2, 2), dilation=(1, 1), ceil_mode=False)
    (13): Dropout2d(p=0.1)
    (14): Conv2d(128, 128, kernel_size=[3, 3], stride=(1, 1), padding=(1, 1))
    (15): BatchNorm2d(128, eps=1e-05, momentum=0.05, affine=True)
    (16): ReLU(inplace)
    (17): Conv2d(128, 128, kernel_size=[3, 3], stride=(1, 1), padding=(1, 1))
    (18): BatchNorm2d(128, eps=1e-05, momentum=0.05, affine=True)
    (19): ReLU(inplace)
    (20): Conv2d(128, 256, kernel_size=[3, 3], stride=(1, 1), padding=(1, 1))
    (21): BatchNorm2d(256, eps=1e-05, momentum=0.05, affine=True)
    (22): ReLU(inplace)
    (23): MaxPool2d(kernel_size=(2, 2), stride=(2, 2), dilation=(1, 1), ceil_mode=False)
    (24): Dropout2d(p=0.1)
    (25): Conv2d(256, 256, kernel_size=[3, 3], stride=(1, 1), padding=(1, 1))
    (26): BatchNorm2d(256, eps=1e-05, momentum=0.05, affine=True)
    (27): ReLU(inplace)
    (28): Conv2d(256, 256, kernel_size=[3, 3], stride=(1, 1), padding=(1, 1))
    (29): BatchNorm2d(256, eps=1e-05, momentum=0.05, affine=True)
    (30): ReLU(inplace)
    (31): MaxPool2d(kernel_size=(2, 2), stride=(2, 2), dilation=(1, 1), ceil_mode=False)
    (32): Dropout2d(p=0.1)
    (33): Conv2d(256, 512, kernel_size=[3, 3], stride=(1, 1), padding=(1, 1))
    (34): BatchNorm2d(512, eps=1e-05, momentum=0.05, affine=True)
    (35): ReLU(inplace)
    (36): MaxPool2d(kernel_size=(2, 2), stride=(2, 2), dilation=(1, 1), ceil_mode=False)
    (37): Dropout2d(p=0.1)
    (38): Conv2d(512, 2048, kernel_size=[1, 1], stride=(1, 1))
    (39): BatchNorm2d(2048, eps=1e-05, momentum=0.05, affine=True)
    (40): ReLU(inplace)
    (41): Conv2d(2048, 256, kernel_size=[1, 1], stride=(1, 1))
    (42): BatchNorm2d(256, eps=1e-05, momentum=0.05, affine=True)
    (43): ReLU(inplace)
    (44): MaxPool2d(kernel_size=(2, 2), stride=(2, 2), dilation=(1, 1), ceil_mode=False)
    (45): Dropout2d(p=0.1)
    (46): Conv2d(256, 256, kernel_size=[3, 3], stride=(1, 1), padding=(1, 1))
    (47): BatchNorm2d(256, eps=1e-05, momentum=0.05, affine=True)
    (48): ReLU(inplace)
  )
  (classifier): Linear(in_features=256, out_features=100, bias=True)
)
=> Seed '8593'
=> dataset mean and std '[0.5070588235294118, 0.48666666666666664, 0.4407843137254902] - [0.26745098039215687, 0.2564705882352941, 0.27607843137254906]'
=> optimizer '{'optimizer': {'state': {}, 'param_groups': [{'lr': 0.1, 'rho': 0.9, 'eps': 0.001, 'weight_decay': 0.001, 'params': [140662585754552, 140662585754712, 140662433948520, 14
…
