…
    (44): MaxPool2d(kernel_size=(2, 2), stride=(2, 2), padding=0, dilation=(1, 1), ceil_mode=False)
    (45): Dropout2d(p=0.1)
    (46): Conv2d(256, 256, kernel_size=[3, 3], stride=(1, 1), padding=(1, 1))
    (47): BatchNorm2d(256, eps=1e-05, momentum=0.05, affine=True, track_running_stats=True)
    (48): ReLU(inplace)
  )
  (classifier): Linear(in_features=256, out_features=10, bias=True)
)
----------------------------------------------------------------
        Layer (type)               Output Shape         Param #
================================================================
            Conv2d-1           [-1, 64, 32, 32]           1,792
       BatchNorm2d-2           [-1, 64, 32, 32]             128
              ReLU-3           [-1, 64, 32, 32]               0
            Conv2d-4          [-1, 128, 32, 32]          73,856
       BatchNorm2d-5          [-1, 128, 32, 32]             256
              ReLU-6          [-1, 128, 32, 32]               0
            Conv2d-7          [-1, 128, 32, 32]         147,584
       BatchNorm2d-8          [-1, 128, 32, 32]             256
              ReLU-9          [-1, 128, 32, 32]               0
           Conv2d-10          [-1, 128, 32, 32]         147,584
      BatchNorm2d-11          [-1, 128, 32, 32]             256
             ReLU-12          [-1, 128, 32, 32]               0
        MaxPool2d-13          [-1, 128, 16, 16]               0
        Dropout2d-14          [-1, 128, 16, 16]               0
           Conv2d-15          [-1, 128, 16, 16]         147,584
      BatchNorm2d-16          [-1, 128, 16, 16]             256
             ReLU-17          [-1, 128, 16, 16]               0
           Conv2d-18          [-1, 128, 16, 16]         147,584
      BatchNorm2d-19          [-1, 128, 16, 16]             256
             ReLU-20          [-1, 128, 16, 16]               0
           Conv2d-21          [-1, 256, 16, 16]         295,168
      BatchNorm2d-22          [-1, 256, 16, 16]             512
             ReLU-23          [-1, 256, 16, 16]               0
        MaxPool2d-24            [-1, 256, 8, 8]               0
        Dropout2d-25            [-1, 256, 8, 8]               0
           Conv2d-26            [-1, 256, 8, 8]         590,080
      BatchNorm2d-27            [-1, 256, 8, 8]             512
             ReLU-28            [-1, 256, 8, 8]               0
           Conv2d-29            [-1, 256, 8, 8]         590,080
      BatchNorm2d-30            [-1, 256, 8, 8]             512
             ReLU-31            [-1, 256, 8, 8]               0
        MaxPool2d-32            [-1, 256, 4, 4]               0
        Dropout2d-33            [-1, 256, 4, 4]               0
           Conv2d-34            [-1, 512, 4, 4]       1,180,160
      BatchNorm2d-35            [-1, 512, 4, 4]           1,024
             ReLU-36            [-1, 512, 4, 4]               0
        MaxPool2d-37            [-1, 512, 2, 2]               0
        Dropout2d-38            [-1, 512, 2, 2]               0
           Conv2d-39           [-1, 2048, 2, 2]       1,050,624
      BatchNorm2d-40           [-1, 2048, 2, 2]           4,096
             ReLU-41           [-1, 2048, 2, 2]               0
           Conv2d-42            [-1, 256, 2, 2]         524,544
      BatchNorm2d-43            [-1, 256, 2, 2]             512
             ReLU-44            [-1, 256, 2, 2]               0
        MaxPool2d-45            [-1, 256, 1, 1]               0
        Dropout2d-46            [-1, 256, 1, 1]               0
           Conv2d-47            [-1, 256, 1, 1]         590,080
      BatchNorm2d-48            [-1, 256, 1, 1]             512
             ReLU-49            [-1, 256, 1, 1]               0
           Linear-50                   [-1, 10]           2,570
        simplenet-51                   [-1, 10]               0
================================================================
Total params: 5,498,378
Trainable params: 5,498,378
Non-trainable params: 0
----------------------------------------------------------------
=> Seed '971'
=> dataset mean and std '[0.4913725490196078, 0.4823529411764706, 0.4466666666666667] - [0.24705882352941178, 0.24352941176470588, 0.2615686274509804]'
=> optimizer '{'optimizer':
…
